mnist.tflite (tflite, 408320 bytes, 4 tensors)

sequential/dense/MatMul/ReadVariableOp/transpose f4 [128, 784]
00000000: e080 75bc 528a 5bbd 0e0c d5bc 619c 68bd
00000010: 34fd 95bd 45cd 68bd 4ed7 8ebd b0c3 073c
00000020: 8747 8dbd eddd 34bd 5804 4b3c 70c8 59bd
00000030: d03b a0bd e4ec a33c 5063 f5bc aaf9 8cbd
00000040: b02b e4bb 6652 623d 74b6 80bd 80c5 e1bc
00000050: 171e 4bbd 72cc 05bd e728 813d b487 d63c
00000060: 200e 523c a509 a13d 051d 973d 2228 bbbc
00000070: c624 023d 6812 03bd 6244 553d b2e9 6f3d
00000080: 065b 823c 0d87 d33c 3cb0 24be f865 f1bd
00000090: 810e 1dbd 3ade 41bd 6e66 72bd cd46 74be
000000a0: 035f 25be 0284 85be e19b 453c 1dad 923c
000000b0: 6952 07be 098d 30bd 58e3 1dbe 2a5d f2bd
000000c0: b804 3bbe fe2f a5bd b2d1 3a3d 463b 33bd
000000d0: a0ea adbb e466 8ebc 6eaa a4bd 289e eabc
000000e0: 001a 293d 70f0 c63c 4439 9abd c5cb a039
000000f0: 6e13 91bd dba7 89bd 7e56 edbd db0e 31be
00000100: 0ea7 c23d 0855 193e 5f12 c43d 0ca7 0bbe
00000110: 6280 b2bd 3fb7 393d 148f eabd e8c0 82bd
00000120: 7f6f 00bd cdff aabe 3327 febe 2617 08bf
00000130: ef62 62be 95cb 5cbe 148a 42be 28be f5bc
00000140: 2800 3c3d d2f2 153d 4e27 7bbd 38f3 ff3c
00000150: e813 963c eea6 85bd 6201 a33c cc00 433d
00000160: 390c 26bd 269c d9bd 1ec9 81bd b7fa 45bd
00000170: da87 583c 39ec 4fbc 220b 613d 1aa9 1ebe
00000180: 4be2 09bc 5d21 b7bb 4633 9fbe 62ad 9bbe
00000190: 076e 5cbe 7c7b 8cbe 3c52 c7be 7c34 a6be
000001a0: 800d 90be 8b59 a6bd da26 9cbc a857 e6bd
000001b0: 27e6 0b3e b1a9 f23d 756d 8e3d 3042 313c
000001c0: 498b 19bd 7aa9 653d c11d 313d cd01 4f3d
000001d0: cbf9 a43d 9deb 703d 9323 183e 159a 8e3d
000001e0: 92d4 143e a543 4f3d 15c1 1b3d 6f79 a23b
000001f0: 6cb1 663d 6f8d 883c 4872 13be e8ab 85be
00000200: cd6d 93be af35 e3be 6140 e4be 4550 cdbe
00000210: e448 bfbe 3a3b 3bbe 0837 59be d261 e3bd
00000220: 7c3a 593d d1c6 a73d a3a5 89bd fefb 703d
00000230: 00d2 963c 48da 72bd e103 883d 515a 9e3d
00000240: c6f4 523e 5230 2f3e 8c6a 893e ea4c 593e
00000250: 5b71 873c 2669 1fbd 352b 7bbd 569e e33d
00000260: 4287 5c3e 073e a43d c3c6 263c 50f1 833d
00000270: 57af e2bd 87ea 8ebe c263 0abf e41f a3be
00000280: 338e d1be 7b8e 8ebd 521f 91be 9408 5fbe
00000290: 7139 37be 3a47 d3bd 29ac d7bc 907f ad3b
000002a0: 4d4d 9f3d c244 5a3d f120 6dbd 005d 773d
000002b0: 72e1 433e 8eb7 a33d d1e8 8c3e eee7 9b3c
000002c0: 439d 5bbc d6f3 b1bd cc5c babc 85e2 2f3e
000002d0: 4fae 133d 250e 413d a172 91bc ab42 8abd
000002e0: 9f46 dcbc 67f7 c6be c4ff 0bbf 1965 33bf
000002f0: 9c7e c5be 51b9 bdbd 2197 d6bd 7e1b cdba
00000300: cf82 c13c b70c 2a3e 9360 5fbd c5ea 0cbb
00000310: a485 a33d f19e 96bd 08c3 ea39 66ce 753e
00000320: b964 073e ae91 15be 0fc3 b83b c38a cc3d
00000330: a74d 03be 31dd ef3b b38f 2f3c 0621 063e
00000340: ca41 bf3d 605c 0e3e 2db1 2e3e 50fb 3e3e
00000350: d11f 8ebc cd80 92be 183e 09bf e33d 28bf
00000360: 5dac 0fbf cac5 0abe 3754 fabc 7426 4c3e
00000370: 0122 203e 4ed5 34bd 2a36 85be 88c2 42be
00000380: ba67 73bd 34e5 4abd f080 ea3d 90a4 343e
00000390: d373 ce3d dc3e 093d ac14 80bd 66b2 4a3d
000003a0: c747 7dbd 43b8 bebd 3c27 103e 29f1 993d
000003b0: 5ba5 f53b 1b55 723e cc50 b43e 7185 6e3e
000003c0: 2834 b8bd 881c cfbe b735 28bf 3f6f 29bf
000003d0: 0214 c7be e19f 7cbe 5998 203e 7845 0b3e
000003e0: 9189 bebc 8dfa 14bd afcc cdbd a67e 60bd
000003f0: 3dcd dc3c d73b b23d be3b 823b 6f2f 853d
-0.0149843395 -0.05359871 -0.026006725 -0.05678976 -0.07323685 -0.056836385 -0.0697466 0.008286402
-0.068984084 -0.044156957 0.012391172 -0.053169668 -0.07823908 0.02001042 -0.029954582 -0.06883557
-0.006963216 0.055254363 -0.062848 -0.027559996 -0.049589243 -0.032665677 0.0630663 0.026187755
0.0128207505 0.07863168 0.07378582 -0.022846285 0.03177335 -0.031999975 0.052067168 0.05857248
0.015912544 0.025821233 -0.16082853 -0.11787027 -0.03834391 -0.047331072 -0.059179716 -0.23855133
-0.16149525 -0.26077276 0.01206109 0.017904812 -0.1321503 -0.04310325 -0.15418756 -0.11834176
-0.18263519 -0.080657944 0.045610137 -0.0437577 -0.0053075105 -0.017383046 -0.080403194 -0.028639868
0.04128456 0.024284571 -0.07530454 0.00030669398 -0.07083784 -0.06721469 -0.11588763 -0.17290823
0.095045194 0.14973843 0.095738165 -0.13637942 -0.08715893 0.045340773 -0.11453071 -0.0638445
-0.03135633 -0.33398286 -0.49639282 -0.5316032 -0.22108053 -0.21562035 -0.18997985 -0.0299979
0.045898587 0.036608525 -0.06131678 0.031243905 0.018320039 -0.0652598 0.01989812 0.04760818
-0.040539 -0.10625486 -0.06337188 -0.048334803 0.013215983 -0.012690597 0.054942258 -0.15494195
-0.008415769 -0.005588694 -0.31093806 -0.30405718 -0.21526347 -0.2743796 -0.38929927 -0.32461917
-0.281353 -0.08122548 -0.019061495 -0.11247188 0.13662015 0.11848772 0.06954471 0.010819003
-0.03748635 0.05606983 0.043241266 0.050538827 0.08055457 0.05881845 0.1485732 0.069629826
0.14534214 0.05060162 0.038025934 0.0049583237 0.056321546 0.016669003 -0.14399064 -0.26107717
-0.2879471 -0.44376895 -0.44580367 -0.40100303 -0.373603 -0.18284312 -0.21212399 -0.11102642
0.05303429 0.08192218 -0.06721046 0.05883407 0.018410683 -0.0592902 0.06641365 0.0773207
0.20601186 0.17108276 0.268391 0.21220747 0.016533544 -0.038918637 -0.061320502 0.111141846
0.21535972 0.08019643 0.010179224 0.06442511 -0.110686 -0.27913305 -0.5405847 -0.31860268
-0.40928802 -0.0696077 -0.28344208 -0.21780616 -0.17893006 -0.1031632 -0.02632721 0.0052947477
0.07778416 0.05328823 -0.057892743 0.060391426 0.1912897 0.07993995 0.27521375 0.019031491
-0.013404193 -0.08689086 -0.022749327 0.17176254 0.036054906 0.04713263 -0.017754855 -0.06750997
-0.026889144 -0.38860628 -0.5468714 -0.7007614 -0.38573158 -0.09263862 -0.10478044 -0.0015648452
0.023621945 0.16606413 -0.05453546 -0.0021502238 0.07984474 -0.073545344 0.00044777268 0.24004516
0.13222016 -0.14606354 0.005638487 0.09987404 -0.12822591 0.0073200692 0.010715413 0.13098535
0.0933872 0.13902426 0.17059775 0.18650556 -0.017349156 -0.28613892 -0.5361037 -0.6571943
-0.5612238 -0.13552013 -0.030557735 0.19936544 0.15637971 -0.044148736 -0.26017886 -0.1901952
-0.059425093 -0.04953499 0.11450374 0.176409 0.100806855 0.033507213 -0.06253943 0.04948654
-0.06183603 -0.09312489 0.14077467 0.07516701 0.0074965185 0.23665278 0.35217893 0.23293091
-0.08994323 -0.40451455 -0.6570696 -0.66185373 -0.38882452 -0.24670364 0.15683116 0.13600719
-0.023258956 -0.036371756 -0.10048806 -0.05480828 0.026953334 0.0870282 0.003974407 0.06503188

sequential/dense/MatMul_bias f4 [128]
00000000: 369e 483d 13f7 83bd 6f38 b2bc beff b53d
00000010: 06cc 043d b587 c43d 413b 063c c0f4 a9bc
00000020: b29d b1ba c74e ba3d f84b 0a3e ca2d afbd
00000030: 602b b03c ed72 a4bd ff2e 6b3b 6882 fcba
00000040: 027f a33c 772e 523d ccc6 c03d c1c4 683d
00000050: a3f3 1b3d f8a6 b53d 53e7 a6bd fa9c a03d
00000060: 0559 29bb d268 9fbd 3ffe 87bd 5777 d4bd
00000070: 15b8 133e d906 de3b 4600 243d e3cd 4c3d
00000080: 5d42 b4bd baa7 8f3c cca6 d63d caca aa3e
00000090: a37d 6bbc 716f febc 2bdc 39be 9d1c d23d
000000a0: 8687 a33c 29a8 853c c160 0d3e b44b 2c3d
000000b0: 91dd e33d ad8f 8fbd 8303 113d d91b 943c
000000c0: 1af5 9e3d a8c0 87bd f50c 04bc 281f 84bc
000000d0: 2493 5fbc 91b6 863e 5933 11be 7ed0 8b3d
000000e0: 2207 983d 3487 dc3c 9ba4 763d 43a6 ce3d
000000f0: 68c0 33bc 1aa3 3b3d 1ff4 b63c d2e9 b6bc
00000100: 5a8d 0dbd e796 11be 5fee b8bc 1891 28bb
00000110: 545f 4c3e 2ade e43c a794 cb3d d7c3 9d3c
00000120: ff53 973d 6d0a 2d3e f099 10be dfa6 6d3d
00000130: 0e0d 90bd d6d0 94bc 9f84 493e d0bd a2bd
00000140: 1c9a 07bd 4a0f cc3d 052a 053d 758d f13d
00000150: 5b71 8dbc e8ca b63b 0f97 fdbd 2e86 d2bc
00000160: 1992 c4bd d7d4 cb3d f6d2 783d 1073 b1bd
00000170: c57b a73b cdb8 043e ba3b 603d 005e fabc
00000180: 5e8b 00be 83db da3d 89a3 ef3d 0357 bf3d
00000190: 7f8f 463e 29e2 a93d 875a 3abd 502e 303d
000001a0: 658f 47bd de93 333d 5b35 a1bc a616 eabc
000001b0: 91fa 623d 9dc7 1e3d ec55 9bbb 522f f838
000001c0: 14f1 363c 5c7f 1f3e 4282 2dbb 84d1 ba3d
000001d0: bdc1 f6bc 2751 573d 4e5c 9abc 41ad 27bb
000001e0: b257 8dbb ff65 993c a48b 943d 52ab 413e
000001f0: 3aad c2bd 3ab4 263d 5d38 58bd bc40 d53d
0.048979007 -0.0644361 -0.021755425 0.088866696 0.032421134 0.095961966 0.008192838 -0.020746589
-0.0013551025 0.09097057 0.13505542 -0.085536554 0.021505058 -0.08029733 0.0035886166 -0.0019264938
0.019958023 0.051313844 0.094129175 0.056828264 0.038074147 0.088697374 -0.0814959 0.07842441
-0.0025840413 -0.07783665 -0.066402905 -0.10374325 0.1442569 0.0067757186 0.040039323 0.050001036
-0.0880172 0.017536033 0.10481033 0.3335784 -0.014373216 -0.031058999 -0.18150394 0.10259364
0.019962084 0.016315537 0.1380644 0.042064384 0.11126245 -0.07009826 0.03540374 0.018079685
0.07761593 -0.06628543 -0.00805973 -0.016128138 -0.013645921 0.26311162 -0.14179744 0.06826876
0.074232355 0.026919939 0.060215574 0.10090306 -0.010971166 0.045809843 0.022333203 -0.022328291
-0.03455863 -0.14217721 -0.022574602 -0.0025721248 0.1995824 0.027937967 0.099404626 0.019258423
0.07389068 0.16898508 -0.14121222 0.05802047 -0.0703374 -0.018165987 0.19679497 -0.0794636
-0.033105955 0.09963854 0.032510776 0.11794559 -0.017265966 0.0055783875 -0.12382328 -0.025698747
-0.095981784 0.09952705 0.060748063 -0.086645246 0.00511119 0.12961121 0.05474446 -0.0305624
-0.12553164 0.106864 0.11701114 0.09342768 0.19390677 0.0829509 -0.04549649 0.043012917
-0.048720736 0.04384219 -0.019678762 -0.028575253 0.05541474 0.038764585 -0.0047404673 0.000118343756
0.011165876 0.15575927 -0.0026475345 0.09121993 -0.030121678 0.052567627 -0.018842842 -0.0025585445
-0.0043134326 0.018725393 0.07253197 0.1891301 -0.095056966 0.04069922 -0.052788127 0.10412738

sequential/dense_1/MatMul/ReadVariableOp/transpose f4 [10, 128]
00000000: a2e0 1bbe bb37 94be 46c7 e9be 74f4 27be
00000010: 56dc 8b3e 7221 30bd 6dad 5a3d 1d50 183e
00000020: b0b1 36be 3691 06bf 1aeb 2dbf 2de3 2a3e
00000030: 0650 b43d a980 febd 9bb0 eebe e6b0 3cbe
00000040: 283e 173e b154 72be bcd1 95be 0c77 a33d
00000050: 82bd 8c3d 92b8 cf3e a010 4e3d 6ccf 57bf
00000060: a9d1 163d 347d b53d 93bc 853e 0275 d3bd
00000070: d97e 343e 2d98 503e 9db0 e43d 8e85 99bd
00000080: d0b2 333e ecc5 983e f81d 83be 78cc 9dbe
00000090: 473a b03d 29b7 a2be ea29 b83d 219a 173d
000000a0: 3dbc 6f3d 6d3e 87be 3dc4 5fbe 3635 b0bd
000000b0: fa0c ffbb d45d 863e 23c3 553d 6dca 52bb
000000c0: b886 70be 73a3 d43d 3df5 2e3e 4b3f 053d
000000d0: f079 dcbe 1878 9d3d 9f7f 333e f634 adbe
000000e0: 04f5 413e 47a4 da3e dcd2 6c3e be50 933e
000000f0: ccf9 8cbd ae7e f53d 212d 5d3e 392b 75be
00000100: 18fe f7bd 48e7 083e cc69 b7bd f7a5 073e
00000110: a64a 5f3d f562 60be 798b b6be b000 4ebf
00000120: 0e28 3abe 38c6 4f3c 1f24 823d 0783 57be
00000130: 3629 e73b 3645 533e 3979 17be d0b8 cebd
00000140: bfdb d1be 54a1 cfbe e1fd 19bf 3fe3 1abb
00000150: 32e4 94be 06ee c5be 405b 4a3e b9ee 163e
00000160: b01d 983e ecfc 253e da78 303e d7a2 4dbe
00000170: cd8d 17bf 9729 c4bd 59fd 863e 5668 edbd
00000180: d1f1 843e 9e7b a23d 12d2 0c3e 7cc2 033e
00000190: 4dce 18be 3f2d bcbe 5246 86be 9027 02bf
000001a0: daf6 b43e 3fd0 71be 1e6b 193e e744 19bd
000001b0: c287 0a3c 4a19 f13d b4d2 843e e56b 10bf
000001c0: b2ae 313e f2bd 373e 3ef1 41be bfda 383e
000001d0: 1290 443e 8f78 d7be 8dad 10be d144 2ebd
000001e0: 4b7f cc3c cb92 903d fe63 3d3d 09ee 993e
000001f0: 9b4d 4ebf 068d 39be 01e9 4a3e 586e 3d3e
00000200: 3857 0e3f 5f2f db3e 7162 4d3e ca01 b0bd
00000210: 5921 a13b 4aac 8cbe 32f7 c63c 84cc 583e
00000220: a1d5 df3d 6110 cbbc 1f5c 4bbd 75e0 87be
00000230: cc7d 88be f916 7ebd 15c7 0c3e a642 05be
00000240: ef9b f5be 0866 e4bd 3ba6 4dbe a57c 0dbd
00000250: 3ddb 81be 0041 4e3e 2afa 04bf 99fd 4f3d
00000260: 4115 043d aa50 c23d d394 ccbe 478d 293e
00000270: eab3 303c 55d8 c0be 9233 923e 0dc6 813e
00000280: 10ae 683e 521d 8ebe 9277 1c3f a241 21be
00000290: 850d 0ebe 62e9 8c3e ecce a0be 52fd 88be
000002a0: 9872 78bc a96d b23d 5bf0 b0be aced 8bbe
000002b0: 825c 88be 94b1 4f3e 58a1 423e 126c 03bf
000002c0: b74d 5cbe b573 29be 1673 2cbe 76ae 98bd
000002d0: d847 21bd 8e4d a7bc 7504 44be e6aa a33e
000002e0: b604 b0be 6867 87be e5ad 45be d024 c4be
000002f0: 85d5 393e a646 33be 0662 953c 1439 893c
00000300: 2d33 fe3d c162 bfbe 0aa4 713c 363a 0abf
00000310: 4870 ee3e cc53 96be 0533 a63e ee81 dfbe
00000320: b319 a4bd 9c43 6b3e daab 7bbe c88a 093f
00000330: c12c 7f3d d4bb 883e 6df2 803d dd8d 483e
00000340: bf1c aebd 8172 e83d 4ab8 893e bb1c f0bc
00000350: 52a1 803e 4b61 8dbd a762 a1bc 2cf5 813d
00000360: 1c08 ebbe eed0 a53e 3b76 443e 8d52 f43d
00000370: e7ca 283e 4e48 9c3e ae04 c23d 8a12 e5bd
00000380: 6da4 4cbe 7b86 03be 93db 02bc 7167 b93e
00000390: 9b5f 30be 6ee9 aebd 3299 6dbe b6b6 a73d
000003a0: c738 ebbe 1634 82bd 371f 023e 4adc 50be
000003b0: 5fd4 a4be 46af 033f 7e5a 513e 1e0d 5a3e
000003c0: ca95 8dbd fa58 09bf d515 133e 9f1a f0be
000003d0: 37c8 ee3c 02c3 a43e c0fe e93d 43d8 6a3e
000003e0: 33f1 74be ddb6 3fbe 7cb0 9d3e 3e16 b2bb
000003f0: 1c6f 82be 1697 2bbf 5a6e 643e 2703 70be
-0.1522241 -0.2894877 -0.45659846 -0.16401845 0.2731654 -0.043000646 0.053388048 0.14874311
-0.1784122 -0.52565324 -0.6793686 0.16688223 0.08804326 -0.12426884 -0.46619114 -0.18426856
0.14769804 -0.2366512 -0.29261577 0.07981691 0.06872083 0.40570503 0.050308824 -0.84300876
0.03682104 0.08861771 0.26120433 -0.10325052 0.17626514 0.2037055 0.11166499 -0.07496177
0.1754868 0.29838502 -0.25608802 -0.3082006 0.086048655 -0.31780365 0.089923695 0.037012223
0.058529127 -0.26414815 -0.21852203 -0.08603899 -0.0077835293 0.2624346 0.05218805 -0.0032164112
-0.23488891 0.10382738 0.17085738 0.032531064 -0.4306178 0.07688922 0.17529152 -0.33829468
0.18941122 0.4270346 0.23127311 0.2877254 -0.068835825 0.11987053 0.21599247 -0.2394227
-0.121090114 0.13369477 -0.08955726 0.13246904 0.05451455 -0.21912749 -0.35653284 -0.804698
-0.18179342 0.012681536 0.06354546 -0.21046077 0.0070544733 0.2063187 -0.14792337 -0.10093844
-0.40987965 -0.4055277 -0.60153013 -0.0023633984 -0.2908035 -0.3865816 0.19761372 0.14739503
0.2971015 0.16209763 0.17233601 -0.2008165 -0.59200746 -0.09578245 0.26365164 -0.11592166
0.2596574 0.07933734 0.1375201 0.12867159 -0.14922448 -0.3675327 -0.26225525 -0.5084162
0.35344583 -0.23614596 0.14982268 -0.037419226 0.008455219 0.11772402 0.25942004 -0.56414634
0.17351797 0.17943552 -0.18939683 0.18052195 0.19195583 -0.42084166 -0.14128704 -0.042546097
0.024963042 0.070592485 0.046237938 0.3006442 -0.80587167 -0.18120202 0.19815446 0.18499124
0.55601835 0.4280958 0.20057084 -0.08594091 0.0049173054 -0.27475196 0.024287794 0.21171767
0.10929418 -0.024788084 -0.0496484 -0.26538435 -0.26658475 -0.062033627 0.13747819 -0.13013706
-0.4797053 -0.111522734 -0.20082943 -0.0345427 -0.25362578 0.20141983 -0.5194422 0.05077896
0.03224683 0.09488042 -0.39957294 0.165578 0.010785082 -0.37665048 0.2855497 0.25346413
0.2272265 -0.27756745 0.6111995 -0.15747693 -0.13872345 0.27521807 -0.3140787 -0.26755768
-0.01516404 0.08712322 -0.34558377 -0.27329767 -0.26633078 0.20282584 0.1900686 -0.5133678
-0.21514021 -0.16548045 -0.16840777 -0.07455151 -0.039375156 -0.020422723 -0.19142325 0.31966323
-0.34378594 -0.2644608 -0.19304617 -0.38309336 0.18147857 -0.17507419 0.018235218 0.01675085
0.12412105 -0.3738003 0.014748583 -0.5399507 0.4657004 -0.29360807 0.324608 -0.43653816
-0.08012714 0.2297501 -0.24577275 0.5372739 0.06229854 0.267058 0.06296239 0.19585367
-0.08501577 0.11349965 0.26898414 -0.029310575 0.25123078 -0.06903323 -0.019700361 0.06345591
-0.45904624 0.32385963 0.19185726 0.11929808 0.16483651 0.30523914 0.09473549 -0.11185177
-0.19984598 -0.12844269 -0.007986921 0.36211732 -0.1722397 -0.08540617 -0.2320297 0.08189146
-0.45941755 -0.06357591 0.1270722 -0.20396534 -0.32193276 0.5143932 0.20444676 0.21294066
-0.069133356 -0.5365139 0.14363797 -0.4689531 0.029148204 0.3218003 0.11425543 0.2293406
-0.23920135 -0.187221 0.3079871 -0.0054347804 -0.25475395 -0.67027414 0.22307721 -0.23438703

sequential/dense_1/MatMul_bias f4 [10]
00000000: 90ab 0abe 0329 26bd 9fd2 ef3b ea39 0fbd
00000010: 6c6f ad3d 1d6d c63d d77f ecbd 79eb 54bc
00000020: ef00 a63d 39e8 11bc
-0.13542008 -0.040566456 0.007318809 -0.03496734 0.08468518 0.096887805 -0.11547821 -0.012995594
0.08105647 -0.008905464
